7767517
11 12
Input            data             0 1 data 0=12 1=12 2=3
Convolution      conv1            1 1 data conv1 0=10 1=3 2=1 3=1 4=0 5=1 6=270
ReLU             ReLU1            1 1 conv1 conv1_ReLU1
Pooling          pool1            1 1 conv1_ReLU1 pool1 0=0 1=2 2=2 3=0 4=0
Convolution      conv2            1 1 pool1 conv2 0=16 1=3 2=1 3=1 4=0 5=1 6=1440
ReLU             ReLU2            1 1 conv2 conv2_ReLU2
Convolution      conv3            1 1 conv2_ReLU2 conv3 0=32 1=3 2=1 3=1 4=0 5=1 6=4608
ReLU             ReLU3            1 1 conv3 conv3_ReLU3
Split            splitncnn_0      1 2 conv3_ReLU3 conv3_ReLU3_splitncnn_0 conv3_ReLU3_splitncnn_1
Convolution      fc1_conv         1 1 conv3_ReLU3_splitncnn_1 fc1_1_conv 0=2 1=1 2=1 3=1 4=0 5=1 6=64
Convolution      fc2_conv         1 1 conv3_ReLU3_splitncnn_0 fc1_2_conv 0=4 1=1 2=1 3=1 4=0 5=1 6=128
