7767517
14 15
Input            data             0 1 data 0=24 1=24 2=3
Convolution      conv1            1 1 data conv1 0=28 1=3 2=1 3=1 4=0 5=1 6=756
ReLU             relu1            1 1 conv1 conv1_relu1
Pooling          pool1            1 1 conv1_relu1 pool1 0=0 1=3 2=2 3=0 4=0
Convolution      conv2            1 1 pool1 conv2 0=48 1=3 2=1 3=1 4=0 5=1 6=12096
ReLU             relu2            1 1 conv2 conv2_relu2
Pooling          pool2            1 1 conv2_relu2 pool2 0=0 1=3 2=2 3=0 4=0
Convolution      conv3            1 1 pool2 conv3 0=64 1=2 2=1 3=1 4=0 5=1 6=12288
ReLU             relu3            1 1 conv3 conv3_relu3
InnerProduct     fc1              1 1 conv3_relu3 fc1 0=128 1=1 2=73728
ReLU             relu4            1 1 fc1 fc1_relu4
Split            splitncnn_0      1 2 fc1_relu4 fc1_relu4_splitncnn_0 fc1_relu4_splitncnn_1
InnerProduct     fc2_1            1 1 fc1_relu4_splitncnn_1 fc2_1 0=2 1=1 2=256
InnerProduct     fc2_2            1 1 fc1_relu4_splitncnn_0 fc2_2 0=4 1=1 2=512
