7767517
40 44
Convolution      conv1            1 1 data conv1 0=24 1=3 2=1 3=1 4=1 5=1 6=648
ReLU             PReLU1           1 1 conv1 conv1_PReLU1
Pooling          Pooling1         1 1 conv1_PReLU1 Pooling1 0=0 1=2 2=2 3=0 4=0
Convolution      conv2            1 1 Pooling1 conv2 0=32 1=3 2=1 3=1 4=1 5=1 6=6912
ReLU             PReLU2           1 1 conv2 conv2_PReLU2
Convolution      conv3            1 1 conv2_PReLU2 conv3 0=32 1=3 2=1 3=1 4=1 5=1 6=9216
ReLU             PReLU3           1 1 conv3 conv3_PReLU3
Pooling          Pooling2         1 1 conv3_PReLU3 Pooling2 0=0 1=2 2=2 3=0 4=0
Convolution      conv4            1 1 Pooling2 conv4 0=32 1=3 2=1 3=1 4=1 5=1 6=9216
ReLU             PReLU4           1 1 conv4 conv4_PReLU4
Convolution      conv5            1 1 conv4_PReLU4 conv5 0=32 1=3 2=1 3=1 4=1 5=1 6=9216
ReLU             PReLU5           1 1 conv5 conv5_PReLU5
Pooling          Pooling3         1 1 conv5_PReLU5 Pooling3 0=0 1=2 2=2 3=0 4=0
Convolution      conv6            1 1 Pooling3 conv6 0=64 1=3 2=1 3=1 4=1 5=1 6=18432
ReLU             PReLU6           1 1 conv6 conv6_PReLU6
Convolution      conv7            1 1 conv6_PReLU6 conv7 0=64 1=3 2=1 3=1 4=1 5=1 6=36864
ReLU             PReLU7           1 1 conv7 conv7_PReLU7
Pooling          Pooling4         1 1 conv7_PReLU7 Pooling4 0=0 1=2 2=2 3=0 4=0
Split            splitncnn_0      1 4 Pooling4 Pooling4_splitncnn_0 Pooling4_splitncnn_1 Pooling4_splitncnn_2 Pooling4_splitncnn_3
Convolution      conv8            1 1 Pooling4_splitncnn_3 conv8 0=64 1=3 2=1 3=1 4=1 5=1 6=36864
ReLU             PReLU8           1 1 conv8 conv8_PReLU8
InnerProduct     fc1              1 1 conv8_PReLU8 fc1 0=256 1=1 2=147456
ReLU             PReLU_fc1        1 1 fc1 fc1_PReLU_fc1
InnerProduct     fc2              1 1 fc1_PReLU_fc1 fc2 0=166 1=1 2=42496
Convolution      conv9            1 1 Pooling4_splitncnn_2 conv9 0=64 1=3 2=1 3=1 4=1 5=1 6=36864
ReLU             PReLU9           1 1 conv9 conv9_PReLU9
InnerProduct     fc3              1 1 conv9_PReLU9 fc3 0=128 1=1 2=73728
ReLU             PReLU_fc3        1 1 fc3 fc3_PReLU_fc3
InnerProduct     fc4              1 1 fc3_PReLU_fc3 fc4 0=3 1=1 2=384
Convolution      conv10           1 1 Pooling4_splitncnn_1 conv10 0=64 1=3 2=1 3=1 4=1 5=1 6=36864
ReLU             PReLU10          1 1 conv10 conv10_PReLU10
InnerProduct     fc5              1 1 conv10_PReLU10 fc5 0=128 1=1 2=73728
ReLU             PReLU_fc5        1 1 fc5 fc5_PReLU_fc5
InnerProduct     fc6              1 1 fc5_PReLU_fc5 fc6 0=2 1=1 2=256
Convolution      conv11           1 1 Pooling4_splitncnn_0 conv11 0=64 1=3 2=1 3=1 4=1 5=1 6=36864
ReLU             PReLU11          1 1 conv11 conv11_PReLU11
InnerProduct     fc7              1 1 conv11_PReLU11 fc7 0=128 1=1 2=73728
ReLU             PReLU_fc7        1 1 fc7 fc7_PReLU_fc7
InnerProduct     fc8              1 1 fc7_PReLU_fc7 fc8 0=3 1=1 2=384
Softmax          prob             1 1 fc8 prob 0=0
